项目（水质预测）/models/lstm_water_quality.pth (torch, 875673 bytes, 12 tensors)

lstm.weight_ih_l0 f4 [512, 5]
0	0x3d66f64c	0.05638723
1	0x3da907ba	0.08253427
2	0xbc727697	-0.014798782
3	0x3db691f3	0.08914556
4	0xbc4012b9	-0.011723214
5	0x3ceac428	0.028657988
6	0xbd17b85e	-0.03704106
7	0x3d337ace	0.043818288
8	0x3d854ae4	0.06508425
9	0xbd5c8dcd	-0.05384617
10	0x3d966aeb	0.07344612
11	0x3c063486	0.0081912335
12	0x3d8bcac0	0.06825781
13	0x3d17086a	0.03687326
14	0x3cae703b	0.02129375
15	0xbd057c17	-0.032589044
16	0x3d36a999	0.044595335
17	0x38de3d65	0.000105972205
18	0xbd9f5a86	-0.07780938
19	0xbbb573fd	-0.0055375085
20	0xbc94bdda	-0.018156935
21	0xba2edfb0	-0.0006670905
22	0xbd80e13f	-0.06292962
23	0x3d4330a2	0.0476538
24	0xbd1dac18	-0.0384942
25	0xbcc4db54	-0.024030365
26	0xbb4d2e15	-0.0031307985
27	0xbd4063c9	-0.046970163
28	0x3c3c6ecd	0.011501026
29	0xbd963c14	-0.07335678
30	0x3dcd72c3	0.10031655
31	0xbd9bed12	-0.07613577
32	0x3d5be7b4	0.053687766
33	0x3d8b8aa4	0.06813553
34	0xbd4fe08e	-0.05075126
35	0x3d3eb70a	0.04656128
36	0xbca8c2f0	-0.020600766
37	0x3daa68f2	0.08320798
38	0x3c912c91	0.017721446
39	0xbd2cc19d	-0.04217683
40	0x3bd07924	0.0063620973
41	0xbd25a0dd	-0.040436614
42	0x3d078d04	0.033093467
43	0x3db11964	0.08647421
44	0x3c8b02e0	0.016969144
45	0xbcc4962f	-0.023997394
46	0x3d85d5ed	0.06534944
47	0xbcc33412	-0.02382854
48	0x3da9116a	0.082552746
49	0xbd86c476	-0.06580441
50	0xbd7119a4	-0.058862343
51	0xbc980f48	-0.018561974
52	0xbd86b581	-0.06577588
53	0x3d9b8ae8	0.07594854
54	0x3d3c635b	0.04599319
55	0x3d74c15a	0.059754707
56	0x3d654e6c	0.055982992
57	0x3cc18bc0	0.023626208
58	0x3d8d0367	0.068854146
59	0xbcebbc80	-0.028776407
60	0xbc9be368	-0.019029334
61	0xbda68246	-0.081303164
62	0x3b98e5c5	0.0046660625
63	0xbd58b0a3	-0.05290283
64	0x3d7ba698	0.061438173
65	0xbc0e32ec	-0.008679133
66	0x3db2cb33	0.087301634
67	0xbcf8c251	-0.030366095
68	0xbd9691b5	-0.0735201
69	0xbcfaf361	-0.03063363
70	0x3de0a654	0.109692246
71	0x3d67fbae	0.056636505
72	0x3dce6381	0.100775726
73	0xbe08c5db	-0.13356726
74	0xbdcebcf9	-0.100946374
75	0xbd6796dd	-0.05654036
76	0xbd73aa45	-0.059488554
77	0x3c948178	0.018128142
78	0x3d5405de	0.051763408
79	0x3deb51df	0.11490225
80	0xbd6a697d	-0.057229508
81	0xbd9ce683	-0.07661154
82	0x3d3440da	0.04400716
83	0xbbae1d83	-0.0053135767
84	0xbb91d733	-0.0044507026
85	0xbc115215	-0.008869668
86	0x3dbbec77	0.091759615
87	0xbda09818	-0.078415096
88	0xbda9c891	-0.08290208
89	0x3cc3ab3d	0.023885364
90	0x3d1f5e8d	0.03890853
91	0xbb6315cc	-0.0034650443
92	0x3c9b9dad	0.018996084
93	0x3dab6e50	0.0837065
94	0xbdd666c1	-0.104688175
95	0xbce84a47	-0.02835573
96	0x3dcf795b	0.101305686
97	0xbc88b736	-0.016688924
98	0xbca1ecbf	-0.01976621
99	0xbd6ac33e	-0.057315104
100	0xbb8c8845	-0.0042887055
101	0xbc330c8d	-0.010928285
102	0xbd002382	-0.031283863
103	0xbdfedab8	-0.12444061
104	0x3bae02a6	0.0053103743
105	0xbd83b9eb	-0.064319454
106	0xbdadbcaa	-0.084832504
107	0xbd5e748a	-0.05431036
108	0xbd4348be	-0.047676794
109	0xbda61e4a	-0.08111246
110	0x3dcaaf44	0.098967105
111	0x3d6046a1	0.054754857
112	0x3d0727c1	0.032996897
113	0xbde49813	-0.11161818
114	0xbe007568	-0.12544787
115	0xbd4c3e97	-0.049864378
116	0xbc1603f6	-0.009156218
117	0xbd651685	-0.05592968
118	0xbce69430	-0.028146833
119	0xbd83ef4d	-0.064421274
120	0x3c69295c	0.014231052
121	0xbcd968db	-0.026539257
122	0xbc5b4754	-0.013383705
123	0xbd0e58b9	-0.03475258
124	0xbd4df737	-0.05028459
125	0xbd8040f2	-0.06262387
126	0xbd5f41ae	-0.054505996
127	0xbc4cbfaa	-0.012496868
128	0x3d9fa3f9	0.07794947
129	0xbd715685	-0.058920402
130	0x3ded689a	0.11592217
131	0x3a804a7a	0.0009787821
132	0xbd83edc7	-0.06441837
133	0x3d77591e	0.060387723
134	0xbda6e604	-0.08149341
135	0xbc09ee14	-0.008418579
136	0xbd951db7	-0.07281058
137	0xbd8a98b4	-0.06767407
138	0xbd172275	-0.036898095
139	0xbd2f8a99	-0.042856786
140	0x3cf94f19	0.030433225
141	0xbddd2757	-0.10798519
142	0x3d0ab32b	0.033862274
143	0xbd9ba9d5	-0.07600752
144	0xbc819f0c	-0.01582291
145	0x3cc7e872	0.02440283
146	0x3d97f4ba	0.07419725
147	0x3da0d4d9	0.078530975
148	0x3dd4e325	0.10394887
149	0xbd201611	-0.039083544
150	0x3c4a7b70	0.012358531
151	0xbd0a49b9	-0.033761714
152	0xbc6606d9	-0.014039719
153	0xbdccd623	-0.10001781
154	0x3dd8c886	0.10585122
155	0xbd1f5e1c	-0.03890811
156	0x3d55063d	0.052007902
157	0x3c8458cd	0.016155625
158	0x3d1adcf1	0.037808362
159	0xbd061a14	-0.032739714
160	0x3dd1ad13	0.102380894
161	0x3d448c19	0.04798517
162	0x3cb68110	0.022278339
163	0xbd65c0e0	-0.056092143
164	0x3d7f9c9c	0.062405214
165	0xbd377749	-0.044791494
166	0xbd119cb9	-0.035549853
167	0x3dbc0f5b	0.09182616
168	0x3ce045f1	0.0273771
169	0xbd9c21fa	-0.07623668
170	0xbcfc8c7c	-0.030828707
171	0xbb8f3e18	-0.004371416
172	0x3ce6679b	0.028125575
173	0xbd0fc3c8	-0.03509882
174	0xbd7e2ce2	-0.062054522
175	0xbd50781b	-0.05089579
176	0xbdb39576	-0.08768742
177	0x3c774a33	0.015093374
178	0x3d6bdc01	0.05758286
179	0xbda1f8b1	-0.07908762
180	0x3c85c8dd	0.01633113
181	0x3d579c37	0.052639212
182	0x3c8198da	0.015819956
183	0xbceeed4a	-0.029165883
184	0x3ca06ff6	0.019584637
185	0x3d460278	0.048342198
186	0x3d0c7501	0.03429127
187	0x3c7f7d0d	0.015593779
188	0x3bd9a20a	0.006641631
189	0x3cb5ce0b	0.022192976
190	0xb9e2f76c	-0.00043290423
191	0xbcc04d6d	-0.02347442
192	0x3d1e8569	0.03870145
193	0x3dc5864a	0.09644754
194	0x3b45effa	0.0030202852
195	0xbca9f921	-0.020748677
196	0x3c05b765	0.0081614
197	0xbb421571	-0.002961483
198	0xbbfdfa75	-0.007750804
199	0x3d67c0e2	0.05658043
200	0xbd4b8be8	-0.049693972
201	0xbc002564	-0.007821415
202	0x3d4e2936	0.05033227
203	0xbc34caf9	-0.011034721
204	0xbc834521	-0.016024174
205	0xbd07c907	-0.0331507
206	0xbcf624de	-0.030046877
207	0xbdae5b02	-0.08513452
208	0x3c8c8d58	0.017157242
209	0x3d50e52f	0.050999817
210	0x3d71b4dd	0.059010375
211	0x3d5a24e7	0.05325785
212	0xbd8737bb	-0.066024266
213	0xbd37ad22	-0.044842847
214	0x3c81a488	0.015825525
215	0x3dbcb9f0	0.09215152
216	0x3d20cb8b	0.039256614
217	0xbcb0bec6	-0.021575343
218	0x3c46343f	0.012097417
219	0xbd4be601	-0.049779896
220	0xbcbc50c2	-0.022987727
221	0x3db4921e	0.08816932
222	0xbd244366	-0.04010334
223	0xbcba7b3c	-0.02276384
224	0xbdb0774f	-0.08616506
225	0x3d0f467b	0.034979325
226	0x3daa8161	0.08325458
227	0xbacc60c1	-0.00155928
228	0xbd30b543	-0.043141615
229	0xbdd030c0	-0.10165548
230	0xbdc7503b	-0.097320996
231	0x3da969a7	0.08272105
232	0x3c81f8cc	0.015865706
233	0x3d7ab8cb	0.06121139
234	0x3bc0eb67	0.005887437
235	0x3d110673	0.03540654
236	0x3c519f41	0.012794317
237	0xbd61279e	-0.054969423
238	0xbdbf0a00	-0.09328079
239	0xbd7af405	-0.06126787
240	0x3ce3e239	0.027817832
241	0xbd5e3dae	-0.05425804
242	0xbb13e02f	-0.0022564044
243	0xbd3bb28e	-0.04582458
244	0xbd7aece7	-0.061261084
245	0xbbe246de	-0.0069054207
246	0xbd9e52fe	-0.07730673
247	0xbb5e75d5	-0.0033944745
248	0xbd279aaf	-0.040919002
249	0x3dd01c90	0.10161698
250	0xbc8cc31c	-0.01718288
251	0xbd3e87b3	-0.04651613
252	0xbbf14cba	-0.007363883
253	0xbd6aca25	-0.057321686
254	0xbd2f9dd9	-0.042875145
255	0xbdefcc74	-0.11708918

lstm.weight_hh_l0 f4 [512, 128]
0	0xbd177dc3	-0.03698517
1	0x3d41eb19	0.047343347
2	0x3d6f06f1	0.05835623
3	0x3b29bd84	0.0025900314
4	0xbd438be3	-0.04774083
5	0x3ccbd6f4	0.024882771
6	0x3c06a08a	0.008216986
7	0x3dbe580f	0.092941396
8	0x3cd8c0d3	0.026459133
9	0x3c88531d	0.016641194
10	0xbb44a8d8	-0.0030007865
11	0x3d6fc66d	0.058538843
12	0x3c03f71f	0.008054524
13	0x3d8c2cc0	0.06844473
14	0x3d117f34	0.0355217
15	0xbd9d23cb	-0.076728426
16	0xbc00ccd2	-0.007861333
17	0xbd9098bd	-0.070603825
18	0xbd49733f	-0.049182173
19	0x3ca26964	0.019825645
20	0x3c98df38	0.018661126
21	0x3ab3b064	0.0013709185
22	0x3d9b7bc3	0.07591965
23	0xbd12368f	-0.035696562
24	0xbd2a8659	-0.04163203
25	0xbba84862	-0.005135582
26	0x39990129	0.00029183298
27	0xbbca1e59	-0.0061681685
28	0x3d916d44	0.07100919
29	0xbd40bce2	-0.047055133
30	0xbd5eed72	-0.054425664
31	0x3c6467c8	0.013940759
32	0x3d6596da	0.056052066
33	0x3d229bed	0.039699484
34	0x3d5aec56	0.053448044
35	0x3cde0087	0.02709986
36	0x3db2af26	0.08724813
37	0x3d791817	0.06081399
38	0x3d5e3040	0.054245234
39	0xbcb9981b	-0.022655537
40	0xbd8151ec	-0.063144535
41	0xbd0306f2	-0.031989045
42	0x3cfc2bf3	0.030782675
43	0x3d25b96f	0.040460046
44	0xbcf6002c	-0.030029379
45	0x3dacfdc4	0.084468395
46	0x3cdfc9df	0.02731794
47	0x3b30a6c0	0.002695486
48	0x3c1116c7	0.008855528
49	0xbcc4dc97	-0.024030967
50	0x3dbe1270	0.092808604
51	0x3cd2fd04	0.025755413
52	0x3d822835	0.06355325
53	0xbd8ae6bc	-0.0678229
54	0xbd145c9d	-0.036221135
55	0x3c970c46	0.01843847
56	0x3d8a37f3	0.06748953
57	0x3d4d2a51	0.050089184
58	0x3b5f3ab0	0.003406208
59	0xbda80376	-0.08203785
60	0x3c1670c1	0.009182156
61	0xbd4ddefe	-0.05026149
62	0xbd871048	-0.06594902
63	0x3c0130f3	0.007885206
64	0xbcf785eb	-0.030215224
65	0x3d823675	0.06358043
66	0xbd1c512c	-0.03816335
67	0x3ca363d5	0.019945065
68	0x3d797e54	0.06091149
69	0xbdad58b7	-0.08464187
70	0x3d4c36b8	0.04985687
71	0x3bc93956	0.006140868
72	0x3d611f6e	0.054961614
73	0x3dc6db48	0.09709793
74	0xbd34f665	-0.044180293
75	0xbcc95542	-0.024576787
76	0x3d7124a8	0.05887285
77	0x3ccc323b	0.024926296
78	0xbc6386bd	-0.013887105
79	0x3d93ad78	0.07210821
80	0xbd155cae	-0.03646534
81	0xbc0fd997	-0.008779905
82	0x3d2aa8ee	0.04166501
83	0x3d0b8d6e	0.034070425
84	0xbd6ca154	-0.057771042
85	0x3d027127	0.03184619
86	0xbd821a52	-0.063526765
87	0xbd68f380	-0.056872845
88	0x3d8c6249	0.06854684
89	0xbd1911d3	-0.037370514
90	0xbd020eb4	-0.031752303
91	0xbc1da91e	-0.00962284
92	0x3d01fe40	0.031736612
93	0xbd4af452	-0.04954941
94	0xbda49436	-0.080360815
95	0xbda535b8	-0.08066887
96	0x3ca96e89	0.02068259
97	0xbd827a0d	-0.063709356
98	0x3c2ca12e	0.010536475
99	0xbcb2d890	-0.02183178
100	0xbd8fc820	-0.07020593
101	0xbc9a41e9	-0.018830257
102	0xbd8d4e64	-0.068997175
103	0xbd517ebc	-0.051146254
104	0x3ba35a03	0.0049850955
105	0xbdba8ed4	-0.091092736
106	0xbd8eda61	-0.06975246
107	0x3d8b59cc	0.06804237
108	0x3c32737a	0.01089179
109	0xbca22d16	-0.01979689
110	0xbc9be8ff	-0.019032
111	0x3d9a4bdd	0.07534001
112	0xbd7758b5	-0.060387332
113	0xbd15626f	-0.036470827
114	0xbd8a195f	-0.067431204
115	0xbc9d5d3b	-0.019209495
116	0xba27fc7e	-0.00064081687
117	0xbd824b1f	-0.063619845
118	0x3d4cf38b	0.05003695
119	0xbdaacb52	-0.083395615
120	0x3da4a335	0.08038942
121	0xbd937602	-0.072002426
122	0xbbdc7f74	-0.006729061
123	0x3cd1cb66	0.025609683
124	0xbcef8576	-0.029238444
125	0x3d8b7b7c	0.06810662
126	0xbd82e255	-0.06390826
127	0x3be9588b	0.007121151
128	0xbd8cf4ae	-0.068826064
129	0x3cc412be	0.023934718
130	0x3db3269b	0.08747598
131	0x3da307d3	0.07960477
132	0x3a2dbd97	0.00066276774
133	0xbd16a49a	-0.03677807
134	0x3db9e178	0.09076208
135	0x3c960d5e	0.01831692
136	0x3d83bb8a	0.064322546
137	0xbd1176d5	-0.035513718
138	0xbd6dfeae	-0.05810421
139	0xbd7afb25	-0.061274666
140	0x3dacb982	0.0843382
141	0x380a4f8c	3.2975848e-05
142	0xbda2b1d9	-0.07944078
143	0xbb6c97ee	-0.00361013
144	0xbd52f97d	-0.05150746
145	0xbb802dbc	-0.003911702
146	0x3d321428	0.043476254
147	0xbd094c21	-0.033519868
148	0x3cfb9af5	0.030713538
149	0xbd4af1cb	-0.049546998
150	0x3b56f3a6	0.0032799034
151	0xbd9afdad	-0.07567916
152	0x3c119992	0.008886712
153	0x3dcf44d1	0.101205476
154	0x3d98e9d8	0.07466477
155	0x3d0736e9	0.03301135
156	0x3d76b316	0.060229383
157	0x3d93e518	0.072214305
158	0x3ce2b57f	0.027674435
159	0x3d227f53	0.039672207
160	0xba277d2a	-0.00063891953
161	0x3dbd56ff	0.09245109
162	0x3d9540c7	0.07287746
163	0xbd295930	-0.04134482
164	0x3b39583d	0.0028281354
165	0xbd0aeb70	-0.033915937
166	0x3c8da300	0.017289639
167	0xbda0d9b0	-0.078540206
168	0x3d309227	0.04310813
169	0xbc39c447	-0.0113383
170	0x3cbbebe3	0.022939628
171	0xbba67217	-0.0050795185
172	0xbcf16ff4	-0.029472329
173	0x3d5dd855	0.05416139
174	0x3d4684ad	0.048466373
175	0xbd8bb786	-0.06822114
176	0x3dc28e11	0.09499753
177	0x3d703d77	0.058652367
178	0x3d8978d5	0.067125
179	0x3abb6702	0.0014297666
180	0x3d390b9e	0.045177095
181	0xbd08e09a	-0.03341732
182	0xbc86915f	-0.01642674
183	0x3d65a42b	0.056064766
184	0x3d3e3254	0.046434715
185	0x3cf8eafd	0.030385489
186	0xbdb92091	-0.09039415
187	0x3daa94d9	0.08329172
188	0xbcffb8c9	-0.031216042
189	0x3db6f9f4	0.089343935
190	0x3db746f4	0.0894908
191	0x3d071020	0.032974362
192	0x3dcc95fc	0.09989545
193	0x3d305264	0.043047324
194	0x3d86cd13	0.065820836
195	0xbd358a88	-0.044321567
196	0x3da07c57	0.07836216
197	0x3c30152c	0.010747235
198	0x3d90fc65	0.070793904
199	0xbbc5d379	-0.0060371724
200	0x3d897432	0.067116156
201	0x3dafc952	0.08583321
202	0xbda24fe2	-0.07925393
203	0x3da4a366	0.08038978
204	0xbd81508e	-0.06314193
205	0xbd47a230	-0.04873866
206	0xbdbfa927	-0.09358435
207	0x3d1b90df	0.037979957
208	0xbd787cab	-0.060665768
209	0xbd2d4b98	-0.04230842
210	0xbd8123bf	-0.06305646
211	0x3c98c767	0.01864977
212	0xbdbe29bf	-0.09285306
213	0xbce8d135	-0.02842007
214	0x3c165023	0.0091743795
215	0xbc1aef64	-0.009456489
216	0xbcbd2320	-0.023088038
217	0x3d097538	0.033559054
218	0xbd2bff2c	-0.041991398
219	0xbdb25bc8	-0.08708912
220	0xba648281	-0.00087169564
221	0xbd13305a	-0.035934784
222	0x3d50ec34	0.05100651
223	0xbd478443	-0.04871012
224	0xbc34776a	-0.011014799
225	0x3c7459e9	0.014914014
226	0xbd6046f8	-0.05475518
227	0x3d9ac3f9	0.0755691
228	0xbd3bf116	-0.045884214
229	0xbb948375	-0.0045322725
230	0xbd738bce	-0.0594595
231	0xbd3bb848	-0.04583004
232	0xbd13dab3	-0.03609724
233	0xbdd1566a	-0.1022156
234	0x3d2d1baf	0.04226273
235	0x3c51363b	0.012769277
236	0x3d8bd474	0.068276316
237	0x3d73f0c5	0.059555788
238	0x3d8caafc	0.0686855
239	0x3ceff326	0.029290747
240	0x3d6f27ba	0.058387496
241	0x3dc0edcc	0.09420356
242	0x3d8edcc3	0.06975701
243	0xbdacf142	-0.08444454
244	0xbc7d8158	-0.0154727325
245	0xbd9b4af3	-0.07582655
246	0x3b87ecb2	0.0041480893
247	0xbd2f7c6c	-0.042843267
248	0x3d76ba6e	0.060236387
249	0xb9078741	-0.0001292499
250	0x3c3af3bb	0.011410649
251	0xbd5beab6	-0.053690635
252	0xbd5c1a94	-0.053736284
253	0x3baa4e8c	0.005197352
254	0xbd57092a	-0.052498974
255	0xbd04a5dc	-0.03238474

lstm.bias_ih_l0 f4 [512]
0	0x3d6abc71	0.057308618
1	0x3d8cb6de	0.06870817
2	0xbd979f69	-0.07403452
3	0x3d511f84	0.051055446
4	0x3d417b7b	0.0472369
5	0x3db90109	0.090334006
6	0xbda4a5ca	-0.08039434
7	0xbccfbfa5	-0.025359938
8	0xbd705267	-0.058672335
9	0xbd54ab0c	-0.051920936
10	0xbd37cfd9	-0.044875953
11	0xbd230de1	-0.039808158
12	0x3ca856f4	0.020549275
13	0x3d66ea17	0.05637559
14	0xbd3e09e5	-0.046396155
15	0x3d802bba	0.0625834
16	0x3db59153	0.08865609
17	0xbc88873c	-0.016666047
18	0xbcdd1d41	-0.026991488
19	0xbd63850a	-0.055546798
20	0x3e0ed3ea	0.13948026
21	0x3d7b484b	0.06134824
22	0xbc992082	-0.018692259
23	0x3d225314	0.03963001
24	0xbd65dabb	-0.0561168
25	0xbd541727	-0.051779892
26	0x3d73b75a	0.05950103
27	0x3ba07ebc	0.0048979204
28	0x3dc2f843	0.095200084
29	0xbb0dfc3a	-0.0021665231
30	0xbd42c2a1	-0.047548894
31	0x3c7f6a51	0.015589313
32	0x3b76488a	0.0037579858
33	0x3d888887	0.066666655
34	0xbc5cf10a	-0.013485203
35	0xbc9c415b	-0.019074133
36	0x3cfe590e	0.031048324
37	0x3db6c7d9	0.08924837
38	0x3dabf991	0.083972104
39	0xbd2cf098	-0.042221636
40	0x3ab5058c	0.0013810857
41	0xbc95a0ba	-0.018265117
42	0xbccb15f1	-0.024790736
43	0x3d0b83b6	0.034061156
44	0xbc31dedd	-0.010856357
45	0x3d4587d2	0.04822523
46	0x3db1b656	0.08677356
47	0x3afb54a7	0.0019175009
48	0xbcae7d95	-0.021300117
49	0x3daddeba	0.08489747
50	0xba32d0d1	-0.0006821277
51	0x3a864799	0.0010244726
52	0x3caf5583	0.02140308
53	0xbcd617c3	-0.026134377
54	0xbce267db	-0.027637413
55	0x3d59dab1	0.053187076
56	0xbc8d49bf	-0.017247079
57	0xbd6fac8d	-0.058514167
58	0xbda62cd8	-0.08114022
59	0x3d93be32	0.07214011
60	0xbd8d75ce	-0.06907235
61	0xbb9b7674	-0.0047443453
62	0xbc81d3e2	-0.015848104
63	0xbd655da4	-0.055997506
64	0x3d449111	0.04798991
65	0x3dbe6947	0.09297424
66	0x3cae8493	0.02130345
67	0xbd0c3945	-0.034234304
68	0xbbcd4ff2	-0.0062656337
69	0xbd148601	-0.03626061
70	0x3d4faea2	0.050703652
71	0x3c452b95	0.012034317
72	0xbd1e51d3	-0.038652252
73	0xbcd6e587	-0.026232494
74	0x3cc61cd2	0.024183664
75	0x3da38c56	0.07985751
76	0x3db8fd42	0.0903268
77	0x3d50b355	0.050952274
78	0x3d144a94	0.036203936
79	0xbd86f140	-0.065889835
80	0xbd78ac25	-0.060711045
81	0x3dd27c0d	0.10277567
82	0x3d0954d6	0.03352817
83	0x3c68fb99	0.014220142
84	0xbc76aacf	-0.015055372
85	0x3ca71849	0.020397322
86	0xbd36cf03	-0.044631016
87	0xbcfd83b2	-0.030946586
88	0xbcd0be2a	-0.025481302
89	0xbd2481a6	-0.040162705
90	0x3ca793bf	0.020456193
91	0xbcea147d	-0.028574223
92	0xbcb15c41	-0.021650435
93	0x3bffe84e	0.0078096753
94	0xbda473a4	-0.08029869
95	0x3dbff869	0.09373552
96	0x3c3626ea	0.011117676
97	0x3d760663	0.060064685
98	0x3cec4b15	0.028844396
99	0xbd1e85c3	-0.038701784
100	0xbd4504fa	-0.04810045
101	0x3d936aa8	0.071980774
102	0x3d82b1c7	0.063815646
103	0x3d7f72b7	0.06236526
104	0xbcb7d315	-0.022439519
105	0x3dbb26d3	0.091382645
106	0x3d806ffe	0.06271361
107	0xbbf1df09	-0.007381324
108	0xbc1d4da6	-0.009601032
109	0xbd87b238	-0.066257894
110	0xbca2258d	-0.019793296
111	0xbce309ca	-0.027714629
112	0x3dbe76db	0.09300014
113	0xbd74eacc	-0.059794232
114	0x3d236ccd	0.039898682
115	0x3dcfc20f	0.101444356
116	0x3dbf3f43	0.09338238
117	0x3db8bdda	0.09020586
118	0x3d6e1511	0.05812556
119	0x3c7c6304	0.015404467
120	0x3d9f531a	0.07779522
121	0x3b78014b	0.0037842568
122	0x3c617a0b	0.0137620075
123	0xbd5810c3	-0.05275036
124	0xbbd77fe7	-0.0065765264
125	0x3d90036d	0.070319034
126	0xbd30e2cc	-0.04318504
127	0x3da0f66e	0.07859503
128	0x3cc53156	0.024071377
129	0x3d45b7dc	0.048271045
130	0xbd2f423d	-0.04278778
131	0x3d8794e3	0.06620195
132	0xbbe10674	-0.0068672244
133	0x3caeb31e	0.021325644
134	0x3d0f9f6e	0.035064153
135	0x3d89fc2d	0.06737552
136	0xbd42d29f	-0.047564145
137	0xbd9291e4	-0.07156733
138	0x3db5d991	0.08879388
139	0x3d3a82e5	0.045534987
140	0x3d38c8bc	0.04511331
141	0x3c12693f	0.008936225
142	0x3d33baee	0.043879442
143	0xbd815e48	-0.06316811
144	0xbd86a8d2	-0.06575169
145	0x3d199ea3	0.037504803
146	0x3d843342	0.06455089
147	0xbcbb604d	-0.022873068
148	0x3db06348	0.086126864
149	0x3d9264d7	0.0714814
150	0xbca7564f	-0.020426897
151	0xbd0dc736	-0.03461381
152	0x3d5a3a93	0.053278517
153	0x3d23a443	0.039951574
154	0x3d99e32c	0.07514033
155	0x3db4518d	0.08804617
156	0x3cc706e0	0.02429527
157	0x3d9c2b17	0.07625406
158	0x3d82c24a	0.06384714
159	0x3cf14fc5	0.029456982
160	0xbd407bbb	-0.046993
161	0x3d521e59	0.051298473
162	0xbd47afe2	-0.04875172
163	0xbd2068cd	-0.039162446
164	0x3bf5109c	0.0074787866
165	0xbc237d96	-0.0099786725
166	0xbd208258	-0.039186805
167	0xbc81de21	-0.01585299
168	0x3d939095	0.07205311
169	0xbd8f142c	-0.06986269
170	0x3b41936d	0.0029537336
171	0x3c198eb8	0.009372406
172	0x3c3211d7	0.010868511
173	0x3bc4344e	0.0059876805
174	0x3d553ee5	0.052061934
175	0x3d5e6662	0.05429686
176	0xbd341f56	-0.043975197
177	0x3d9bec4e	0.07613431
178	0xbca36d83	-0.01994968
179	0x3ce18122	0.027527396
180	0x3d1ab5f0	0.037771165
181	0xbdb330bb	-0.08749529
182	0xbd9f0ea2	-0.07766463
183	0xbd20b96c	-0.039239332
184	0x3d174f81	0.036941055
185	0x3cafce08	0.021460548
186	0x3cae1de8	0.021254495
187	0xbd0ef358	-0.03490004
188	0xbb8852b3	-0.004160249
189	0xbd94c035	-0.07263223
190	0x3d4274da	0.04747472
191	0xbcbfb371	-0.023400994
192	0x3dcc9d91	0.09990991
193	0xba59d076	-0.0008308956
194	0xbdb731f1	-0.089450724
195	0x3cba0cb4	0.022711135
196	0x3da22d8d	0.07918844
197	0x3cf73c48	0.030180112
198	0x3d103875	0.03521009
199	0x3dbcaa99	0.092122264
200	0x3d1b8342	0.037966974
201	0x3dce08a1	0.100602396
202	0xbd7e3898	-0.06206569
203	0x3db7bb7f	0.08971309
204	0xbd4f2a43	-0.050577413
205	0xbd135657	-0.035971012
206	0xbdbc90c8	-0.09207302
207	0x3d87438f	0.06604683
208	0xbd773068	-0.0603489
209	0xbc8f19c0	-0.017468333
210	0xbd3df24b	-0.046373647
211	0x3d5100dd	0.051026214
212	0xbb6d65a5	-0.0036223915
213	0xbc24e04b	-0.010063241
214	0x3d0bc821	0.034126405
215	0xbd2a374c	-0.04155664
216	0xbd3b662f	-0.045751747
217	0xbd2f16a7	-0.042746212
218	0xbd12d0ee	-0.035843782
219	0x3cb81477	0.022470696
220	0xbd838b9e	-0.06423114
221	0x3d6b13a8	0.057391793
222	0x3db3c65f	0.08778071
223	0xbaf183fc	-0.0018426175
224	0xbd189377	-0.03725001
225	0x3c4b95db	0.012425865
226	0xbb1cc31a	-0.002392
227	0xbd982703	-0.07429316
228	0xbcc816e6	-0.024424981
229	0xbd893f5a	-0.067015365
230	0x3c6822e5	0.014168476
231	0xbd385436	-0.045002185
232	0x3cd1ebc0	0.02562511
233	0xbd999cfb	-0.07500645
234	0xbd3f9deb	-0.04678146
235	0xbd828f51	-0.06374992
236	0x3d7f3d8f	0.062314566
237	0xbd428cf1	-0.047497693
238	0x3db620ac	0.088929504
239	0xbc77aa06	-0.01511622
240	0xbd49c465	-0.049259562
241	0xbcb82947	-0.02248062
242	0x3dec0d25	0.115259446
243	0xbd822ada	-0.063558295
244	0xbd410d33	-0.04713173
245	0x3db04fbc	0.08608958
246	0xba040fc0	-0.00050377473
247	0xbc2b260d	-0.010446084
248	0x3d1cf7d2	0.038322277
249	0x3d38c744	0.04511191
250	0xbce351a8	-0.027748898
251	0x3db23d06	0.087030455
252	0x3cd75af2	0.026288483
253	0x3c91a8ec	0.017780744
254	0x3c3c3190	0.011486426
255	0xbca8d9f3	-0.020611739

lstm.bias_hh_l0 f4 [512]
0	0xbd327b76	-0.043574773
1	0xbd4b2428	-0.04959503
2	0x3d930451	0.07178558
3	0xbc7f3881	-0.015577436
4	0x3ca5991e	0.020214614
5	0x3db4b743	0.08824017
6	0x3daa59b1	0.083178885
7	0x3d9c6b13	0.0763761
8	0xbd53d0de	-0.051712863
9	0x3c972095	0.018448154
10	0x3c22c5d8	0.009934865
11	0x3c208879	0.009798163
12	0x3dbbfe79	0.09179396
13	0x3d6afef3	0.057372045
14	0xbd66ba5c	-0.05633007
15	0x3dad9890	0.084763646
16	0x3dd3dccf	0.1034485
17	0xbd415904	-0.047204033
18	0xbd578a2a	-0.052621998
19	0x3da5b857	0.08091801
20	0x3cbcd0ca	0.023048777
21	0xbd5d30ec	-0.054001734
22	0x3d73dc68	0.059536368
23	0x3c344361	0.0110023925
24	0x3d7ff6ff	0.062491413
25	0xbd610818	-0.05493936
26	0x3dbbd406	0.091713
27	0xbbf719d1	-0.0075409194
28	0xbd30883f	-0.043098684
29	0x3d211091	0.03932244
30	0xbd1b514b	-0.037919324
31	0xbd7c1790	-0.06154591
32	0xbbadda4e	-0.005305565
33	0x3c1ad34c	0.009449791
34	0xbcb8c0c3	-0.022552853
35	0x3bc9bfe4	0.0061569083
36	0xbda127d0	-0.07868922
37	0x3d820196	0.06347959
38	0x3b815a8c	0.0039475616
39	0x3cfc3861	0.030788602
40	0x3d93e7e4	0.07221964
41	0x3d995a7b	0.07487961
42	0x3d8aa658	0.06770009
43	0x3d96180e	0.07328807
44	0x3d01c2de	0.03167998
45	0xbd37077b	-0.04468487
46	0x3da8c382	0.08240415
47	0xbc228893	-0.009920257
48	0x3cd12f4a	0.025535244
49	0x3de0a2a6	0.10968523
50	0xbd70778e	-0.058707766
51	0x3a033ab1	0.0005005999
52	0xbd53e703	-0.05173398
53	0xbbc99852	-0.006152191
54	0xbbc7c5ec	-0.006096592
55	0xbd47cf78	-0.048781842
56	0xbc9c5a8f	-0.01908615
57	0x3d5a7115	0.0533305
58	0xbd7181af	-0.058961567
59	0xbcd4712a	-0.025932867
60	0x3d6ea9a9	0.05826727
61	0x3da65757	0.081221275
62	0xbd955bb5	-0.07292882
63	0x3da2bdce	0.079463586
64	0x3cba2a6f	0.022725312
65	0x3d28003e	0.041015856
66	0x3d6dc714	0.058051184
67	0x3d962c8e	0.07332717
68	0x3c59f3a3	0.013302716
69	0x3da7368c	0.08164701
70	0x3cc6c21d	0.024262482
71	0x3cf3fa89	0.02978255
72	0x3cfdf751	0.031001719
73	0xbd621caf	-0.055203136
74	0xbcf95b25	-0.030438969
75	0xbd9af974	-0.07567111
76	0x3d412434	0.047153667
77	0x3d525781	0.05135298
78	0xbc982793	-0.018573558
79	0x3d012580	0.031529903
80	0xb91828a2	-0.00014510987
81	0x3aef7c81	0.0018271358
82	0xbd926239	-0.07147641
83	0x3d268f57	0.040664043
84	0x3ba14d25	0.0049225264
85	0x3d12cc55	0.035839397
86	0x3db628be	0.0889449
87	0xbd7d379c	-0.06182061
88	0x3cbbbb3a	0.022916425
89	0xbce2a1ca	-0.027665038
90	0x3d882e7f	0.066494934
91	0x3db0792c	0.08616862
92	0x3dbf2899	0.09333915
93	0x3bc3ec41	0.0059790914
94	0x3d0aa128	0.033845097
95	0xbcc59399	-0.024118232
96	0xbd99c06a	-0.07507403
97	0xbd5b8ccf	-0.053601082
98	0x3daa250e	0.08307849
99	0xbd0e896c	-0.034799024
100	0xbc7affda	-0.015319789
101	0x3ccbd88c	0.024883531
102	0xbd8437ed	-0.064559795
103	0x3d90f7bc	0.070785016
104	0x3d91072e	0.070814475
105	0x3b239752	0.002496202
106	0x3c8f71b3	0.01751027
107	0x3d8dad3f	0.0691781
108	0x3da4796b	0.08030971
109	0xbd994d29	-0.0748542
110	0x3d1b7233	0.037950706
111	0xbdc1ce22	-0.09463145
112	0xbd3be50d	-0.045872737
113	0xbdbb5f58	-0.09149045
114	0x3b35f47a	0.0027764128
115	0x3c68801a	0.014190698
116	0x3c313480	0.01081574
117	0x3cab26b0	0.020892471
118	0x3c4f62f0	0.012657866
119	0xbd1dffe4	-0.038574114
120	0x3d23461c	0.039861783
121	0xbcbc9e41	-0.02302468
122	0x3d884df0	0.066554904
123	0x3da11ea6	0.07867174
124	0xbaad33cc	-0.0013214289
125	0x3c8142db	0.01577895
126	0xbd290820	-0.041267514
127	0x3d13bfbb	0.03607152
128	0x3da74341	0.081671245
129	0x3cf993d5	0.030466
130	0x3d0c804e	0.03430205
131	0x3c1909a0	0.009340674
132	0xbd40bdd5	-0.047056038
133	0xbbfbce15	-0.007684479
134	0xbd64ba4b	-0.055841725
135	0x3d95c83d	0.07313583
136	0xbd3c7c11	-0.046016756
137	0xbd73fdf9	-0.05956838
138	0x3d0cdcac	0.034390137
139	0xbcaf1189	-0.021370666
140	0xbc155b91	-0.009116069
141	0x3dc3d150	0.095614076
142	0x3d7b1b56	0.061305366
143	0x3d7426d3	0.05960734
144	0xbc2844eb	-0.010270338
145	0xbc87d544	-0.016581185
146	0xbd1cfb92	-0.038325854
147	0x3cf2b34c	0.029626511
148	0x3dbdb858	0.092636764
149	0xbd218cb0	-0.03944081
150	0xbce6798a	-0.028134126
151	0x3d9ad91c	0.075609416
152	0xbcd1fea3	-0.025634116
153	0x3d3a8193	0.045533728
154	0x3da2ecef	0.07955348
155	0x3d909c68	0.07061082
156	0xbd26d6e3	-0.040732276
157	0x3b40cbf9	0.0029418452
158	0x3da85133	0.082186125
159	0x3db5390a	0.0884877
160	0x3d6ee583	0.05832435
161	0xbd4f470f	-0.050604876
162	0x3d79eea6	0.06101861
163	0xbc801e9d	-0.015639598
164	0x3da9991a	0.08281155
165	0xbd58d621	-0.052938584
166	0x3db47233	0.08810844
167	0x3da64e87	0.08120447
168	0x3ba02441	0.0048871343
169	0xbcd1ab6e	-0.02559444
170	0xbda7bba6	-0.08190088
171	0x3aa9e19d	0.0012960915
172	0xbd1de8dc	-0.03855215
173	0xba7b1783	-0.00095783937
174	0xbd82ced2	-0.06387104
175	0x3d0bc07a	0.034119107
176	0x3d29a368	0.041415602
177	0x3d1c31c5	0.0381334
178	0x3c5d98e5	0.013525222
179	0x3d95c486	0.073128745
180	0x3d323dd0	0.04351598
181	0xbd6ab868	-0.05730477
182	0x3ce19144	0.027535088
183	0xbc790a44	-0.015200201
184	0xbc55b156	-0.013042768
185	0xbcf0a5a4	-0.029375859
186	0x3d337814	0.043815687
187	0xbdcb708f	-0.09933578
188	0xbdb5cb05	-0.088766135
189	0x3d0cf405	0.034412403
190	0xbd8b4d70	-0.068018794
191	0x3d0a1895	0.03371485
192	0xbca4aa7c	-0.020100825
193	0x3c8df3a8	0.017328098
194	0xbd33bf70	-0.04388374
195	0x3d53faed	0.051752973
196	0x3be03fa0	0.006843522
197	0xbcaeebbb	-0.02135264
198	0x3d51fa07	0.051263835
199	0x3c03d172	0.008045541
200	0x3d698c10	0.05701834
201	0x3da37d2b	0.07982858
202	0x3ac4e90e	0.0015023069
203	0xbd0074fd	-0.03136157
204	0x3d07dd21	0.03316987
205	0x3da06455	0.07831637
206	0xbc1ace9b	-0.009448673
207	0x3d080e37	0.03321668
208	0xbd5b1c89	-0.05349401
209	0x3d7f978e	0.062400393
210	0xbd0a3422	-0.033741124
211	0xbd98bc02	-0.07457735
212	0xbc3f413b	-0.011673267
213	0x3d0a3385	0.03374054
214	0xbc891e21	-0.016738
215	0xbd0023b8	-0.031284064
216	0xbbc34a42	-0.00595978
217	0x3d548db1	0.05189294
218	0xbd5158fa	-0.051110245
219	0xbd920f7e	-0.07131861
220	0xbd3cc717	-0.046088304
221	0xbd91a1dd	-0.07110951
222	0x3db1d03f	0.08682298
223	0x3ca086d1	0.019595535
224	0x3ceb0515	0.028688947
225	0x3d1ee2bf	0.03879046
226	0x3d44ceb3	0.048048686
227	0x39ff5277	0.0004869883
228	0x3d6ec241	0.058290724
229	0xbdbea22a	-0.09308274
230	0x3c2a8524	0.01040772
231	0xbd8a710d	-0.06759844
232	0xbba5ab04	-0.005055787
233	0xbd90d41e	-0.07071708
234	0x3b281a05	0.0025650274
235	0x3db95ce5	0.09050921
236	0x3dde7ae9	0.10863287
237	0x3d526778	0.051368207
238	0x3d74d345	0.059771795
239	0xbdaf6410	-0.08564007
240	0x3d8b1d1b	0.06792661
241	0x3d495a10	0.049158156
242	0x3cb196ec	0.02167841
243	0x3d171f88	0.036895305
244	0xbcc5f6e9	-0.024165587
245	0x3d354555	0.044255573
246	0x3cae18dd	0.02125209
247	0x3d0f9ca5	0.035061497
248	0x3d5e13a1	0.05421794
249	0xbda24323	-0.079229616
250	0x3d2fc1db	0.042909484
251	0xbd157d6d	-0.03649657
252	0xbc3eaf11	-0.011638419
253	0xbd8a71f2	-0.067600146
254	0xbd72d207	-0.05928233
255	0x3d5f1d7c	0.054471478

lstm.weight_ih_l1 f4 [512, 128]
0	0xbd3ec73c	-0.046576723
1	0xbc9a55aa	-0.018839676
2	0x3adcd579	0.0016848288
3	0xbd7ef281	-0.06224299
4	0xbd9c588d	-0.07634077
5	0xbda139d8	-0.07872361
6	0xbe053042	-0.1300669
7	0xbd5228bf	-0.05130839
8	0x3d5c0cb2	0.053723045
9	0xbdd43a14	-0.1036264
10	0x3dba10d2	0.090852395
11	0xbd86ec77	-0.06588071
12	0xbc6b089e	-0.014345316
13	0xbc9b13c3	-0.018930322
14	0x3d973c56	0.07384555
15	0x3d44c448	0.04803875
16	0xbd0ad0d9	-0.03389058
17	0xbd3749fd	-0.044748295
18	0xbc010784	-0.007875327
19	0xbdb5e690	-0.08881867
20	0x3d4bd341	0.049762014
21	0x3daa8149	0.083254404
22	0x3b49676a	0.0030731806
23	0x3d998544	0.074961215
24	0x3b605bfa	0.003423451
25	0x3db9a747	0.09065109
26	0xbd34c943	-0.04413725
27	0x3d60a78c	0.054847285
28	0xbc887ea7	-0.016661955
29	0x3b83306e	0.004003576
30	0xbd3be9ae	-0.04587715
31	0x3d003f24	0.031310216
32	0xbda05fdd	-0.078307845
33	0xbccfa2be	-0.025346156
34	0x3d2be162	0.04196299
35	0x3d04556c	0.032308027
36	0xbd567ca6	-0.052364968
37	0xbda0f5ee	-0.07859407
38	0xbc7349e5	-0.014849161
39	0xbd996122	-0.0748923
40	0xbdee0d74	-0.1162366
41	0xbbe24bad	-0.006905994
42	0x3cf89351	0.030343683
43	0xbd11f148	-0.035630494
44	0x3d3e4cbc	0.0464599
45	0xbc2b4a74	-0.010454763
46	0xbdc8fdee	-0.09814058
47	0xbcc08824	-0.023502417
48	0x3d1e53d1	0.038654152
49	0xbd204f8e	-0.03913837
50	0x3db50ee2	0.08840729
51	0xbd4a6976	-0.04941698
52	0xbbd6e128	-0.0065576024
53	0x3d82d5f4	0.063884646
54	0xbdfdc22b	-0.1239055
55	0xbd5e83bc	-0.05432485
56	0x3d1ea613	0.0387326
57	0xbdb886ac	-0.090100616
58	0x3d237def	0.03991502
59	0x3d34e800	0.044166565
60	0xbc1d5e34	-0.009604979
61	0x3dad4979	0.084612794
62	0xbd820fb8	-0.06350654
63	0xbd2da712	-0.04239566
64	0xbd989934	-0.07451096
65	0xbbf1b678	-0.0073764883
66	0x3d215532	0.03938789
67	0x3d947bc6	0.072501704
68	0xbd87827b	-0.06616684
69	0xbd9374ea	-0.07200034
70	0x3df76a99	0.12080879
71	0x3dc93db2	0.098262206
72	0x3c151391	0.009098903
73	0xbc6b5daf	-0.014365598
74	0xbd8a2479	-0.06745238
75	0xbd94f87c	-0.07273957
76	0x3d8fb8d0	0.07017672
77	0xbd19ff18	-0.037596792
78	0x3bb7d997	0.0056106555
79	0x3dcace22	0.09902598
80	0xbd59d6de	-0.05318343
81	0xbd2aa3f8	-0.04166028
82	0xbd95fef6	-0.073240206
83	0x3baaf16e	0.005216769
84	0xbda25bd2	-0.079276696
85	0x3d98a644	0.07453588
86	0x3ca1f797	0.01977138
87	0x3d664bfd	0.05622481
88	0x3dc1a642	0.09455539
89	0xbb8729b4	-0.0041248444
90	0xbdc21549	-0.09476716
91	0xbd57b4fe	-0.052662842
92	0xbdb47931	-0.08812178
93	0xbce6d4d4	-0.028177656
94	0xbdcf5a30	-0.10124624
95	0xbc92284f	-0.017841486
96	0xbd64848d	-0.055790473
97	0xbcbabccd	-0.022795105
98	0x3d806242	0.06268741
99	0x3cdd03ba	0.026979316
100	0x3dc5b817	0.09654253
101	0x3cb3fbeb	0.02197071
102	0x3c1aca0d	0.009447587
103	0x3cbcfa71	0.023068639
104	0x3dd18569	0.10230524
105	0x3d6bb553	0.05754597
106	0xbd49317d	-0.04911946
107	0xbd01e210	-0.03170973
108	0xbdad646d	-0.0846642
109	0xbdab4172	-0.08362092
110	0xbccab01f	-0.024742184
111	0xbd89a57f	-0.06721019
112	0x3da22f23	0.07919147
113	0xbcf35f89	-0.02970864
114	0x3dc4f145	0.09616331
115	0x3d137975	0.036004502
116	0x3d9591f2	0.073032275
117	0xbdb69b60	-0.08916354
118	0xbd627a93	-0.055292677
119	0xbd2aca72	-0.041696973
120	0x3d31fa1c	0.043451414
121	0x3da65c23	0.081230424
122	0x3bf7e7f1	0.0075654914
123	0x3cc320c4	0.023819335
124	0x3d8a6bdc	0.06758854
125	0x3cc899c8	0.024487391
126	0xbd1abf26	-0.03777995
127	0x3d3c9acb	0.04604606
128	0xbc0860c6	-0.008323854
129	0x3cf03154	0.029320396
130	0x3d755234	0.059892848
131	0x3cb299cf	0.021801857
132	0xbcdf3f9f	-0.027252017
133	0x3d6e1346	0.05812385
134	0x3d6adfe5	0.05734243
135	0x3a28c625	0.0006438217
136	0x3da7cbf4	0.08193198
137	0xbd2b94b4	-0.04188986
138	0x3d5e9d2a	0.054349102
139	0x3c1713cd	0.0092210295
140	0x3c20ff52	0.009826498
141	0xbcb17b59	-0.021665262
142	0x3db27425	0.08713559
143	0xbcbd5f12	-0.023116622
144	0xbd901bfa	-0.07036586
145	0xbc26f86b	-0.010191063
146	0xbd3249b9	-0.04352734
147	0x3d502b82	0.050822742
148	0x3da3e302	0.08002283
149	0x3d13c371	0.03607506
150	0xbca98189	-0.02069165
151	0x3c60ea13	0.013727683
152	0x3c9dc966	0.019261073
153	0xbda05f21	-0.078306444
154	0xbc06267e	-0.008187888
155	0x3daf1b96	0.085501835
156	0xbc511403	-0.012761119
157	0xbd9ee24c	-0.077580065
158	0xbdcf5581	-0.101237305
159	0xbc994e35	-0.01871405
160	0xbd3b8166	-0.0457777
161	0xbd059649	-0.032614026
162	0xbb42f4a0	-0.0029747859
163	0x3dad6e5f	0.08468317
164	0x3d72b4b8	0.059254378
165	0xbd1375b1	-0.03600091
166	0x3d9bd749	0.07609422
167	0x3d77744c	0.060413644
168	0x3d06343d	0.032764662
169	0x3d332769	0.043738756
170	0xbcd440b0	-0.025909752
171	0x3daef024	0.08541897
172	0xbda220a5	-0.07916383
173	0xbd72167d	-0.059103478
174	0xbd8a7199	-0.06759948
175	0xbd4204a8	-0.04736772
176	0xbac669df	-0.0015137753
177	0xbce53163	-0.027977651
178	0xbd67139b	-0.05641518
179	0x3d945108	0.07242018
180	0x3cdaf4da	0.026728082
181	0x3d409e8c	0.047026202
182	0x3bdedb71	0.006801062
183	0x3c06735b	0.008206214
184	0x3cbad4f4	0.022806622
185	0xba7fdb54	-0.00097601605
186	0xbccf4bee	-0.02530476
187	0xbc4e959d	-0.012608913
188	0xbd239522	-0.039937146
189	0x3c7a42d1	0.015274719
190	0x3d29f35d	0.041491855
191	0xbd1c0023	-0.038086068
192	0x3d662a82	0.056192882
193	0x3cf60a9d	0.030034358
194	0xbccadb0f	-0.024762658
195	0xbd94a50a	-0.07258041
196	0x3d911b77	0.07085317
197	0x3d42ecfc	0.047589287
198	0xbd292302	-0.04129315
199	0x3c0fb18a	0.008770356
200	0x3c7fff1f	0.01562479
201	0xbd491e95	-0.04910143
202	0xbcea5263	-0.028603738
203	0xbcc575cb	-0.02410402
204	0x3db8aed8	0.09017724
205	0x3db23328	0.087011635
206	0xbcadfa25	-0.021237442
207	0x3d022bf5	0.031780202
208	0x3b69c632	0.0035671112
209	0x3d5dcf24	0.054152623
210	0x3d29b621	0.041433457
211	0x3c73a2a8	0.014870323
212	0x3d84f24b	0.06491526
213	0xbd6728c8	-0.056435376
214	0x3b27e860	0.0025620684
215	0xbd9399b9	-0.07207055
216	0xbd84f262	-0.06491543
217	0x3c501211	0.01269962
218	0x3d1ef5a5	0.038808484
219	0x3d32c8c5	0.0436485
220	0xbd09e581	-0.033666138
221	0xbb362e1c	-0.002779848
222	0xbd4ff952	-0.05077488
223	0x3d2855a8	0.041097313
224	0x3d8a9bfa	0.067680314
225	0x3d4efe48	0.05053547
226	0xbd1fd6a5	-0.03902306
227	0x3d7d8204	0.06189157
228	0x3a97e9cc	0.0011590063
229	0x3cc71d5c	0.024305992
230	0x3c9335c9	0.017969983
231	0x3b3af7b5	0.0028528993
232	0x3dbfbab8	0.09361786
233	0x3d2e2483	0.04251529
234	0x3d905bb4	0.07048741
235	0xbc8b4a90	-0.017003328
236	0x3daed881	0.085373886
237	0x3da4155e	0.08011888
238	0xbd16211d	-0.036652673
239	0xbc9396a1	-0.018016161
240	0xbd7046e0	-0.05866134
241	0x3d9e260b	0.077221
242	0xbb0d8a4e	-0.0021597329
243	0xbc48e893	-0.012262481
244	0xbcb48d14	-0.022039928
245	0x3d8720b3	0.06598034
246	0xbccc8c31	-0.024969192
247	0xbd625100	-0.05525303
248	0x3aa15b2c	0.0012310497
249	0x3c653272	0.013989078
250	0xbd7717fc	-0.060325608
251	0x3d40bfa4	0.047057763
252	0xbd7d3bc6	-0.061824583
253	0x3c834f65	0.01602907
254	0xbd351575	-0.044209916
255	0x3cdd7bde	0.027036604

lstm.weight_hh_l1 f4 [512, 128]
0	0x3d9f7b29	0.07787163
1	0xbaab3b45	-0.0013063928
2	0x3d2be0bd	0.041962374
3	0x3bd4b2ba	0.0064910324
4	0x3c1ef8cb	0.009702872
5	0xbd623420	-0.05522549
6	0x3c5cea60	0.013483614
7	0x3da28863	0.0793617
8	0x3d8195f9	0.06327433
9	0xb9b0af97	-0.0003370016
10	0xbda036c3	-0.07822945
11	0x3c941f54	0.018081345
12	0xbda942f3	-0.08264723
13	0x3c14ba16	0.0090775695
14	0x3d782433	0.060581397
15	0x3d91f488	0.07126719
16	0x3dca7477	0.09885495
17	0xbd9be80b	-0.07612618
18	0xbd8991b0	-0.06717241
19	0x3d8d9ae8	0.06914312
20	0x3c8dd771	0.017314645
21	0x3cb9cdfe	0.022681233
22	0xbdbc9a77	-0.09209149
23	0x3d54b628	0.05193153
24	0x3c77861c	0.015107658
25	0xbc6f7477	-0.01461517
26	0x3c9f4331	0.019441219
27	0xbd7abb58	-0.06121382
28	0xbcecc11a	-0.028900672
29	0xbda8121b	-0.08206578
30	0x3c1ccd3b	0.009570415
31	0xbd221f99	-0.039580915
32	0x3b38e6aa	0.0028213658
33	0xbdb2b0de	-0.08725141
34	0xbc3ac0d3	-0.011398512
35	0xbd9b7fa6	-0.075927064
36	0x3d7e088b	0.062019866
37	0x3dcdd1ef	0.10049807
38	0x3d63f30a	0.055651702
39	0xbd513e68	-0.051084906
40	0xbcca09ba	-0.024662841
41	0xbdc57a18	-0.09642428
42	0xbd7cdd7b	-0.061734658
43	0xbd112d04	-0.03544332
44	0xbd59a95a	-0.05314002
45	0x3d9f157b	0.07767769
46	0x3d823e3a	0.06359525
47	0x3c305f87	0.010764963
48	0x3d5e281e	0.054237477
49	0x3d952817	0.07283037
50	0xbcdb9a33	-0.026806926
51	0x3d0bf306	0.034167312
52	0xbd5f9071	-0.05458111
53	0x3d8d451b	0.068979464
54	0x3dc0d11d	0.09414885
55	0x3c42a61d	0.011880425
56	0x3ce16fb9	0.027519094
57	0x3db17038	0.08663982
58	0x3d81245e	0.063057646
59	0xbd0d5bdf	-0.034511443
60	0x3da95379	0.08267874
61	0x3d51809b	0.05114804
62	0xbd429436	-0.047504626
63	0x3d8d6da5	0.06905679
64	0x3d390b1f	0.04517662
65	0x3d74f5b9	0.059804652
66	0xbd5d004c	-0.05395536
67	0xbd8a74eb	-0.067605816
68	0x3d59d384	0.053180233
69	0xbd53db90	-0.051723063
70	0x3c91b917	0.017788453
71	0xbc80a89d	-0.015705401
72	0x3d0a3b9c	0.033748254
73	0xbd420cbf	-0.047375437
74	0xbd5f83ba	-0.054568984
75	0xbb03e55c	-0.0020125723
76	0xbd06607c	-0.03280686
77	0xbd021e1a	-0.03176699
78	0x3d856c87	0.065148406
79	0xbcf9a5a5	-0.030474493
80	0x3d871c18	0.06597155
81	0x3cbc57e7	0.022991134
82	0xbc7c8206	-0.015411859
83	0x3dbf50b7	0.09341567
84	0xbd49ebb2	-0.049297042
85	0x3d320d55	0.043469746
86	0xbb84b44b	-0.004049813
87	0xbd93ff9c	-0.07226488
88	0x3c6a8f27	0.014316357
89	0x3d9c71ff	0.076389305
90	0xbbe61fb4	-0.0070228223
91	0x3d34646b	0.04404108
92	0xbd651949	-0.055932317
93	0xbda59c1b	-0.080864154
94	0xbda79d62	-0.08184315
95	0xbbab3594	-0.005224893
96	0x3d127dff	0.03576469
97	0x3d129661	0.035787944
98	0x3b8027f8	0.0039110146
99	0xbb8b69a4	-0.0042545367
100	0x3d531dd9	0.051542137
101	0xbcc28c30	-0.023748487
102	0xbc396d54	-0.01131757
103	0x3c071e47	0.008246965
104	0x3d91debf	0.071225636
105	0xbc92b474	-0.017908312
106	0xbd97f6bd	-0.074201085
107	0x3d8629e0	0.06550956
108	0xbc888c04	-0.016668327
109	0x3bd1ab7a	0.0063986154
110	0x3d96169e	0.07328533
111	0xbc95a333	-0.018266296
112	0x3d26fcb6	0.040768348
113	0x3dd1b635	0.10239831
114	0x3a20f04d	0.0006139323
115	0x3d4eaf00	0.05045986
116	0x3da1e3fb	0.07904812
117	0xbce164e0	-0.027513921
118	0xbd751051	-0.059830014
119	0x3dde7331	0.10861815
120	0xbd8e11e5	-0.06937007
121	0xbc232b1d	-0.0099590095
122	0xbc9f4d99	-0.019446181
123	0xbd8a57ef	-0.06755053
124	0x3ace6598	0.001574683
125	0x3d34b6fb	0.044119816
126	0xbd8c79e1	-0.06859184
127	0x3d67eefc	0.056624398
128	0xbbe77f11	-0.007064708
129	0xbd85a42d	-0.06525455
130	0x3d8f749e	0.07004665
131	0xbd9bdfb6	-0.07611029
132	0xbd6d5cf1	-0.057949964
133	0x3d153346	0.03642585
134	0x3d04944e	0.032367997
135	0xbb9baaca	-0.0047505843
136	0xbd9ed2c8	-0.07755047
137	0x3d71ad9e	0.059003465
138	0x3c51fffb	0.012817378
139	0x3d994253	0.074833535
140	0x3d1b36cc	0.037894055
141	0x3d949f95	0.07257
142	0x3cf95e57	0.030440493
143	0x3d5588fd	0.052132595
144	0xbcaaf08b	-0.020866653
145	0x3d3693f5	0.044574697
146	0xbdc634cc	-0.09678039
147	0xbd189f43	-0.03726126
148	0xbdbee19d	-0.09320376
149	0xbd97cf0d	-0.07412539
150	0x3cbfa360	0.023393333
151	0xbd56f662	-0.052481063
152	0x3d103f4b	0.03521661
153	0xbcbcedaf	-0.023062555
154	0x3dae37c5	0.08506731
155	0xbd9a5c19	-0.075370975
156	0x3da4ca57	0.08046406
157	0x3d9a8b00	0.075460434
158	0xbd07b3e9	-0.03313056
159	0xbd927c66	-0.07152633
160	0x3c8c443d	0.017122382
161	0xbd2478e8	-0.040154368
162	0xbd8a9db8	-0.06768364
163	0x3d0e854e	0.034795098
164	0x3d7673f1	0.060169164
165	0xbd627ac0	-0.055292845
166	0xbcce76fd	-0.025203222
167	0xbcb94ad2	-0.022618685
168	0xbc876cae	-0.016531315
169	0x3d36eeda	0.04466138
170	0x3bf3ad16	0.007436405
171	0x3ccff97a	0.025387514
172	0x3cbd8347	0.023133887
173	0x3db7f3e6	0.08982067
174	0x3d543441	0.051807646
175	0x3d146e4e	0.036238007
176	0xbd02eb0c	-0.03196244
177	0xbbe639ef	-0.007025949
178	0xbd28541d	-0.04109584
179	0x3c742ce2	0.014903279
180	0xbc03a845	-0.008035724
181	0xbd583065	-0.052780528
182	0xbd41d40a	-0.047321357
183	0x3d53df3f	0.051726576
184	0x3d1686f5	0.0367498
185	0xbd2bf62a	-0.041982807
186	0x3cf6ccb8	0.030126914
187	0x3bbc5058	0.0057468824
188	0xbd08766b	-0.033316057
189	0xbc81cf4a	-0.015845913
190	0xbd99c54d	-0.07508335
191	0x3cf2b73f	0.029628394
192	0xbda12592	-0.07868494
193	0xbd2d2ae4	-0.04227723
194	0x3d9cee4d	0.0766264
195	0x3bcc4518	0.0062338226
196	0xbd7ac811	-0.061225954
197	0x3d902b47	0.070395045
198	0xbd39a9b9	-0.045327876
199	0xbd4fdc27	-0.050747063
200	0x3d88c199	0.06677551
201	0xbccc5395	-0.024942199
202	0x3d4c20f2	0.049836107
203	0xbd0f6bb3	-0.03501482
204	0x3d381e26	0.044950627
205	0x3d8be6ad	0.06831107
206	0xbd450c43	-0.048107397
207	0xbd848edd	-0.064725615
208	0xbd2b1275	-0.04176565
209	0x3c7ec7d3	0.0155505715
210	0xbd9e448c	-0.07727918
211	0x3d23f31c	0.04002677
212	0xbd8f7eee	-0.07006632
213	0x3d0e3bb0	0.03472489
214	0x3d80d0a0	0.06289792
215	0xbbcd2800	-0.006260872
216	0x3cd7269b	0.026263526
217	0x3ce4b114	0.027916469
218	0x3bc1449e	0.0058980724
219	0x3d7cf71a	0.061759092
220	0xbd8509bc	-0.06495997
221	0x3d6641dd	0.056215156
222	0x3c906022	0.017623965
223	0x3cc588ce	0.024113085
224	0xbb987efc	-0.0046538096
225	0x3da3e5bc	0.08002803
226	0x3da2fe4e	0.07958661
227	0x3d8aae17	0.06771486
228	0xbc15d0dd	-0.009144035
229	0xbd825b05	-0.06365017
230	0xbd48e7bd	-0.049049128
231	0x3c4b8f9f	0.012424379
232	0x3d1152ef	0.035479482
233	0xbc878f11	-0.016547712
234	0x3b7c3615	0.0038484384
235	0x3b99f769	0.004698683
236	0x3c6ba0a2	0.01438156
237	0xbd5f7866	-0.05455818
238	0x3d3cd5d7	0.04610237
239	0xbd02cc34	-0.031933025
240	0xbd35af4f	-0.04435664
241	0x3af2c9f6	0.0018523324
242	0xbd001d89	-0.031278167
243	0x3d09452a	0.033513226
244	0xbd3212a7	-0.04347482
245	0x3ce5343c	0.027979009
246	0xbd059549	-0.032613073
247	0xbd8826dd	-0.066480376
248	0xbdb05039	-0.08609051
249	0x3c36230e	0.011116756
250	0xbda37e26	-0.07983045
251	0x3d849b83	0.06474974
252	0x3d98748e	0.07444106
253	0xbd20b467	-0.039234545
254	0xbbfd5978	-0.007731613
255	0x3cb44b4d	0.022008562

lstm.bias_ih_l1 f4 [512]
0	0x3c1162b0	0.008873627
1	0xbd9dfa46	-0.077137515
2	0xbd69bfef	-0.057067808
3	0x3cc8c00a	0.024505634
4	0x3d91a2fd	0.07111166
5	0x3d439fe2	0.047759898
6	0x3db766d4	0.0895516
7	0xbd8bf5ee	-0.06834017
8	0xbc1c364f	-0.009534433
9	0x3d0f31e2	0.03495968
10	0x3dbef896	0.09324758
11	0xbb9006b5	-0.004395331
12	0x3d9508cb	0.07277068
13	0x3dd73113	0.10507407
14	0xbcf76ae2	-0.030202333
15	0xbcb672aa	-0.022271473
16	0xbc908bc5	-0.017644772
17	0xbb49842e	-0.0030748951
18	0xbd8da064	-0.06915358
19	0xba3a6c1c	-0.00071114465
20	0x3dc510a5	0.09622315
21	0x3bf0b5c7	0.0073458883
22	0x3d4b84f9	0.04968736
23	0x3da9db8f	0.082938306
24	0x3d907e02	0.07055284
25	0xbd15a7ee	-0.036537103
26	0xbc9bcf6e	-0.019019809
27	0x3d07baff	0.033137318
28	0x3dbdb2ea	0.09262641
29	0x3dc8ec4c	0.09810695
30	0x3d7b607c	0.06137131
31	0xbd511286	-0.051043056
32	0x3be11895	0.0068693855
33	0x3db5e7e9	0.08882124
34	0xbcde39b7	-0.02712713
35	0xbd88d0a7	-0.06680422
36	0x3d1ffd74	0.03906007
37	0xbd969293	-0.073521756
38	0x39f9245c	0.0004752007
39	0xbd475737	-0.04866716
40	0xba16ba15	-0.0005749774
41	0x3da34915	0.07972924
42	0x3d0d68d7	0.03452381
43	0xbd9143fd	-0.07093046
44	0x3d2604c9	0.040531907
45	0x3db5d2ff	0.08878135
46	0x3cab1e57	0.02088849
47	0x3daed26d	0.08536229
48	0xbd07db06	-0.03316786
49	0x3d455984	0.048181072
50	0x3d4f989f	0.05068266
51	0x3da13567	0.07871514
52	0x3d9df588	0.07712847
53	0xbd8dd6f1	-0.069257624
54	0x3df46ece	0.11935197
55	0x3d46b312	0.04851062
56	0x3cac9675	0.021067837
57	0xbac55b13	-0.001505705
58	0xbd028604	-0.03186609
59	0x3cc603c7	0.024171723
60	0x3d74927e	0.05971002
61	0x3da690d1	0.0813309
62	0x3d5e38bf	0.054253336
63	0xbcd3f4a5	-0.025873492
64	0xbd32e69c	-0.043676957
65	0x3c5f070c	0.01361252
66	0x3d73d3e8	0.05952826
67	0x3dab72a8	0.08371478
68	0xbd011fa1	-0.031524304
69	0xbcb5da2d	-0.02219876
70	0xbaa7f96f	-0.0012815426
71	0x3d8d8c23	0.069114946
72	0x3baec71d	0.0053337947
73	0xbd887a6f	-0.06663977
74	0x3c13b1d3	0.009014565
75	0xbd2321b4	-0.039827064
76	0x3b2fc89a	0.0026822449
77	0xbd85a507	-0.06525617
78	0xbd72ed80	-0.05930853
79	0xbcea9a7a	-0.028638113
80	0x3d2dc812	0.04242713
81	0x3dc6f57c	0.09714791
82	0x3d85aeb6	0.06527464
83	0xbd89c363	-0.0672672
84	0x3d7f409b	0.062317472
85	0xbcdc6bac	-0.02690681
86	0x3da5d206	0.080966994
87	0x3d059566	0.03261318
88	0x3c60eb1b	0.0137279285
89	0x3d8ef2ba	0.0697989
90	0xbd8cdcfa	-0.068780854
91	0x3d7fc0c5	0.0624397
92	0x3b924142	0.0044633457
93	0xbb705526	-0.0036671846
94	0x3c1acd35	0.009448339
95	0x3d3e04ff	0.046391483
96	0x3d8e1bdd	0.06938908
97	0xbb62b350	-0.0034591742
98	0x3d5ed6d0	0.05440408
99	0x3dbad99f	0.09123539
100	0x3da9eb4c	0.082968324
101	0xbd3cf12c	-0.046128437
102	0xbd258f88	-0.040420085
103	0xbd80c898	-0.0628826
104	0xbda0e856	-0.078568146
105	0xbd0cca9f	-0.034372922
106	0xbd954436	-0.07288401
107	0x3d43ed14	0.047833517
108	0xbd85a0d1	-0.06524814
109	0x3d774d11	0.06037623
110	0x3d1a934e	0.037738137
111	0xbd61474c	-0.054999635
112	0x3d95dffe	0.07318114
113	0x3d41df7d	0.047332276
114	0x3d616d52	0.055035897
115	0x3cb16cd4	0.021658339
116	0xbbc3c42e	-0.005974314
117	0x3cb50589	0.022097366
118	0x3d767959	0.06017432
119	0xbd891847	-0.06694084
120	0x3d718192	0.05896146
121	0xbd88571a	-0.06657238
122	0xbd4ae0b2	-0.049530692
123	0xbd444667	-0.047918703
124	0x3d99ca44	0.07509282
125	0xbd3ec507	-0.04657462
126	0x3cd1352c	0.02553805
127	0x3bbb33ea	0.0057129757
128	0x3c20e4de	0.009820191
129	0xbc232081	-0.00995648
130	0xbbeea41c	-0.007282747
131	0x3da9db92	0.08293833
132	0xbd80d148	-0.06289917
133	0x3dbd47ef	0.09242236
134	0xbd2184f5	-0.03943344
135	0x3ba496b5	0.0050228485
136	0xbd70e268	-0.058809668
137	0x3d464f46	0.048415445
138	0xbcccade3	-0.02498526
139	0x3cfaf929	0.030636387
140	0xbd89a8c2	-0.06721641
141	0x3cc0165a	0.023448158
142	0x3d87d244	0.06631902
143	0x3d257ada	0.040400364
144	0xbd804456	-0.06263034
145	0xbb774004	-0.0037727365
146	0x3dcafcae	0.09911476
147	0x3d900181	0.07031537
148	0xbd1f40e4	-0.038880244
149	0x3c1ea07c	0.009681817
150	0xbd8c4951	-0.068499215
151	0x3dc85bac	0.0978311
152	0xbcb2cc94	-0.021826066
153	0xbd315cf4	-0.043301538
154	0xbd7e9df6	-0.062162362
155	0x3dacfd98	0.08446807
156	0xbc471fd8	-0.012153588
157	0xbd39b570	-0.045339048
158	0xbd1a9c72	-0.037746854
159	0x3bfeb350	0.0077728406
160	0xbd2adcda	-0.041714527
161	0x3b0485a7	0.0020221265
162	0xbd2090c3	-0.039200556
163	0xbc6ea347	-0.014565296
164	0xbd25390b	-0.040337604
165	0xbd616b13	-0.055033755
166	0x3d9c35ab	0.07627424
167	0xbd7fa5cf	-0.062413987
168	0x3c427874	0.011869539
169	0x3ccf48ce	0.02530327
170	0xbd6876d4	-0.05675395
171	0x3dac79ca	0.08421667
172	0x3d2253d4	0.039630726
173	0x3b51f5e9	0.0032037443
174	0xbccc2c5f	-0.024923502
175	0xbd2fb509	-0.042897258
176	0x3da732bd	0.081639744
177	0x3da91094	0.08255115
178	0xbd29c827	-0.041450646
179	0x3d6d2d5b	0.057904582
180	0xbd2370ee	-0.03990262
181	0xbd1c2f66	-0.03813114
182	0xbc9ab893	-0.01888684
183	0x3dc3a35f	0.09552645
184	0x3d047196	0.032334886
185	0x3d097018	0.033554167
186	0x3cde1d25	0.027113507
187	0xbbc0d58b	-0.0058848313
188	0x3daa8b18	0.08327311
189	0xbd4e87cd	-0.05042248
190	0x3d0545c9	0.032537255
191	0x3c3b72b9	0.011440926
192	0xbc918d89	-0.017767685
193	0x3d1c1140	0.03810239
194	0x3d936d7c	0.07198617
195	0xbd8c2850	-0.068436265
196	0x3d67ca03	0.056589138
197	0xbd4d7305	-0.05015852
198	0x3bd261fa	0.006420371
199	0x3c9cfbbe	0.019163009
200	0x3c25e71a	0.0101259
201	0xbd7bea82	-0.06150294
202	0x3cb2ea7e	0.02184033
203	0x3bd57d91	0.006515213
204	0x3b0ce44c	0.002149838
205	0x3d650e72	0.05592198
206	0x3c32f1ff	0.010921954
207	0xbd1b98bd	-0.03798746
208	0x3ba70a04	0.0050976295
209	0xbd4d2c91	-0.05009133
210	0xbd84cc14	-0.06484237
211	0x3d5871e1	0.05284298
212	0x3d824bc7	0.0636211
213	0x3c1dd739	0.009633833
214	0xbd99cb1c	-0.07509443
215	0x3d557ef1	0.052123014
216	0xbd843f66	-0.06457405
217	0xbd432d38	-0.047650546
218	0x3d94a6ea	0.07258399
219	0xbcce94a8	-0.02521737
220	0xbcc5dda4	-0.024153538
221	0x3c21f42a	0.009884873
222	0x3c5c1170	0.013431892
223	0x3d1a3c2b	0.037655037
224	0xbc811069	-0.015754895
225	0x3dce665b	0.100781165
226	0x3d7e689f	0.062111493
227	0x3da7a12b	0.08185037
228	0x3d219c7f	0.039455887
229	0x3dbf86c4	0.093518764
230	0xbc1c53ca	-0.009541461
231	0xbd8b1781	-0.067915924
232	0x3d86e771	0.06587113
233	0x3d528e50	0.05140525
234	0xbd81c648	-0.06336647
235	0xbd47c2fb	-0.048769932
236	0x3d0cd3c0	0.034381628
237	0x3c99c49d	0.01877051
238	0x3db04dc9	0.08608586
239	0x3d9f8753	0.07789483
240	0xbcfe4e38	-0.031043157
241	0x3d904e6d	0.070462085
242	0x3c31e983	0.010858896
243	0xbd0c491c	-0.03424941
244	0x3dc6d02a	0.09707673
245	0xbc3be3f9	-0.011467927
246	0xbb2812cf	-0.0025645976
247	0x3c0aecc6	0.008479303
248	0xbd56140d	-0.052265216
249	0x3cb212d6	0.021737497
250	0x3cd156f2	0.025554154
251	0xbd58a544	-0.052891985
252	0x3d601ba8	0.054713875
253	0xbcbbae6c	-0.02291032
254	0x3cfec122	0.031097952
255	0xbd4b3f5c	-0.04962097
